Project/weight.pt (torch, 538055 bytes, 10 tensors)

encoder.0.weight f4 [20, 2, 13]
0	0xbe4d0d20	-0.20024538
1	0xbdd12755	-0.1021258
2	0xbe4bf633	-0.19918136
3	0xbccd6d1b	-0.02507644
4	0xbe86b237	-0.26307842
5	0x3d25db10	0.040492117
6	0xbe7b0a12	-0.2451556
7	0xbe83a6de	-0.25713247
8	0xbe6c1f4d	-0.23058815
9	0xbcc9d7e2	-0.024639074
10	0xbe3eb8a6	-0.18625125
11	0xbd6148fb	-0.05500124
12	0xbe9cec2f	-0.30648944
13	0xbd9837b8	-0.074325025
14	0xbcce8f99	-0.025214957
15	0xbc33ee1b	-0.010982062
16	0xbda36f2b	-0.07980188
17	0x3e22f845	0.1591502
18	0xbd6ec286	-0.05829098
19	0xbb2a382f	-0.002597343
20	0x3cf0d293	0.029397285
21	0xbd8df24c	-0.0693098
22	0xbd1fce93	-0.039015364
23	0x3d882cd1	0.06649173
24	0xbc30b1e0	-0.010784596
25	0x3d9f054f	0.077646844
26	0x3cb220b9	0.021744119
27	0x3e84d20f	0.25941512
28	0x3e8ea71a	0.27861863
29	0xbd5a0a12	-0.05323226
30	0x3e97c0b4	0.29639208
31	0x3e5f6516	0.21815905
32	0x3e4ad3e1	0.19807388
33	0x3e31e609	0.17372908
34	0x3e6cd46f	0.23127912
35	0x3c1e5077	0.009662739
36	0xbe2c9958	-0.16855371
37	0xbde3fc14	-0.111320645
38	0xbe6e68c3	-0.23282151
39	0x3d016914	0.03159435
40	0xbcf52d9f	-0.02992898
41	0xbdb8e859	-0.09028692
42	0xbc3ec039	-0.011642509
43	0x3e418912	0.18899944
44	0x3d6529d9	0.055948112
45	0x3cfcf7ee	0.03087994
46	0xbc3a8c96	-0.011386057
47	0x3d21fd28	0.03954807
48	0x3e090804	0.13381964
49	0x3d84d3ad	0.064856865
50	0xbbaa3712	-0.005194553
51	0x3d12ca04	0.03583719
52	0x3d85bd83	0.06530287
53	0x3dba88e5	0.09108142
54	0xbc2e5c9e	-0.010642199
55	0xbe2a2d4d	-0.16618843
56	0xbdf861bc	-0.12128016
57	0x3e28b125	0.16473825
58	0x3c7f4345	0.015580003
59	0xbe233521	-0.15938236
60	0x3d151187	0.03639367
61	0x3e2c1488	0.16804707
62	0xbe404192	-0.18775013
63	0xbe11e78e	-0.14248487
64	0xbdcbff44	-0.099607974
65	0x3d4bfa96	0.049799524
66	0xbdf3cfe4	-0.11904886
67	0xbe0abaa6	-0.13547763
68	0xbe4c771b	-0.1996731
69	0x3dd1d912	0.10246481
70	0x3e2042b9	0.15650453
71	0x3daa0f6e	0.08303724
72	0xbe12c7b5	-0.14333995
73	0xbe5abfa5	-0.21362169
74	0xbc6aac69	-0.014323332
75	0x3b9aaf02	0.0047205696
76	0x3e59f1de	0.21283671
77	0xbd1f3aed	-0.038874555
78	0xbc70ba9a	-0.014692927
79	0x3dfc51b2	0.1232027
80	0x3dae879b	0.085219584
81	0xbbfdfd35	-0.007751132
82	0x3d039b31	0.032130424
83	0xbcc9f809	-0.024654405
84	0xbddbe823	-0.10737636
85	0xbd97a861	-0.074051626
86	0xbdf7152d	-0.12064586
87	0x3e3579db	0.17722265
88	0x3df28809	0.11842353
89	0x3daeebf4	0.08541098
90	0xbe042b13	-0.12907057
91	0x3e765c99	0.2405876
92	0x3dcc9752	0.099897996
93	0x3dd6243b	0.10456129
94	0xbe0dc17a	-0.13843337
95	0xbd18a793	-0.037269186
96	0x3d889d1e	0.06670593
97	0x3d226ea1	0.039656285
98	0x3e30fc72	0.172838
99	0xbca53cdd	-0.020170623
100	0x3e3a155e	0.18172213
101	0xbd648702	-0.055792816
102	0x3dd5ce28	0.10439712
103	0xbc376a66	-0.011194801
104	0x3d596575	0.053075273
105	0x3d64d7e3	0.055869948
106	0x3dfee5e5	0.12446193
107	0x3e94d719	0.29070356
108	0x3e584793	0.21121053
109	0x3de3d8e2	0.111253515
110	0x3e7b319f	0.24530648
111	0xbb8fe578	-0.0043913685
112	0x3e3c23da	0.18373051
113	0x3d409723	0.047019135
114	0x3c195f8c	0.009361159
115	0x3d1f9638	0.03896162
116	0xbe354e1d	-0.17705579
117	0xbc9580ff	-0.018249987
118	0x3da4d7f6	0.08049004
119	0x3dd9dccc	0.10637817
120	0xbd54fce6	-0.051998995
121	0x3d5116bd	0.051047076
122	0x3e68a9d8	0.2272104
123	0xbc3cb9fb	-0.011518951
124	0x3e1d8e12	0.15386227
125	0xbd0637b7	-0.032767978
126	0x3e024509	0.12721647
127	0x3b7028f0	0.0036645494
128	0xbbd7dbb2	-0.006587469
129	0x3cb9ac2f	0.022665111
130	0xbdbe4f5a	-0.09292479
131	0x3d211f18	0.039336294
132	0x3c33b48e	0.010968341
133	0xbe125d6d	-0.14293452
134	0xbd29b01d	-0.04142772
135	0xbe087a83	-0.13327985
136	0x3da92040	0.08258104
137	0x3c034b3c	0.008013543
138	0x3c16741f	0.009182959
139	0xbd8fd64d	-0.070232965
140	0xbcb1a3b4	-0.021684505
141	0xbdcee874	-0.10102931
142	0x3aa58b30	0.0012629982
143	0x3c6e2024	0.01453403
144	0xbcc39e1e	-0.023879107
145	0xbd20e826	-0.039283894
146	0x3cf8d231	0.030373665
147	0x3e4ae047	0.19812118
148	0xbd51435e	-0.051089637
149	0xbc43329e	-0.011913924
150	0xbd1a8cce	-0.037731938
151	0xbd41c6a0	-0.047308564
152	0xbc7bdcf5	-0.0153725045
153	0x3db338fa	0.08751102
154	0x3ca35de1	0.019942226
155	0xbd402714	-0.046912268
156	0xbe0a2916	-0.13492236
157	0x3d24a9c1	0.040200952
158	0xbe06ced1	-0.13164832
159	0x3e30c296	0.17261729
160	0x3dedb2a1	0.116063364
161	0x3e8ddfbc	0.27709758
162	0xbd2ce05d	-0.042206157
163	0x3e8498bb	0.25897774
164	0x3e8a2803	0.26983652
165	0x3e83d323	0.25747022
166	0x3dfdb21b	0.123874865
167	0x3e8b4cff	0.2720718
168	0x3e5f7b24	0.21824318
169	0x3dc10bf4	0.09426108
170	0xbdc6e8d1	-0.09712375
171	0xbe19fcc4	-0.15037829
172	0xbcf3eff7	-0.02977751
173	0x3d6f0595	0.058354933
174	0xbd831c3c	-0.0640187
175	0xbd391180	-0.045182705
176	0xbe0fa712	-0.14028576
177	0xbdc284cd	-0.09497986
178	0x3dcf589d	0.101243235
179	0xbd044df0	-0.03230089
180	0xbdbeca4a	-0.09315927
181	0xbcf0d1dd	-0.029396946
182	0x3d8bd72f	0.068281524
183	0xbe671b6d	-0.22569056
184	0xbe56292a	-0.2091414
185	0xbdf9b5d5	-0.12192885
186	0xbe2fb9e8	-0.17160761
187	0x3d22cb90	0.039744914
188	0x3d9e1231	0.077183135
189	0xbe8064d4	-0.25076926
190	0xbe66b888	-0.2253133
191	0xbe793d58	-0.24339807
192	0x3cb3479a	0.021884728
193	0x3ddc394e	0.107531175
194	0xbe4a6a61	-0.19767143
195	0xbd6141d4	-0.05499442
196	0x3db537a8	0.08848506
197	0xbe3942ba	-0.1809186
198	0x3d87d8be	0.06633137
199	0x3c61e66f	0.01378785
200	0xbd73f6e5	-0.05956163
201	0x399e12e1	0.00030150174
202	0x3d21c93a	0.039498545
203	0xbd6f27df	-0.058387633
204	0xbdb2779f	-0.08714222
205	0xba917001	-0.0011096002
206	0x3d340ec0	0.04395938
207	0xbce2dfbb	-0.027694574
208	0xbe323667	-0.17403565
209	0xbc9442c9	-0.018098252
210	0xbe3efcd5	-0.18651135
211	0xbe1e1989	-0.15439428
212	0xbd25db21	-0.04049218
213	0xbe771ab2	-0.24131277
214	0xbd692227	-0.056917336
215	0xbe19290c	-0.14957064
216	0xbce24f93	-0.027625835
217	0xbe6d2935	-0.2316025
218	0xbe097aa7	-0.13425694
219	0xbe0bdd46	-0.13658628
220	0xbeacf2bf	-0.3377895
221	0xbdb12c60	-0.08651042
222	0x3e1a2e03	0.15056615
223	0xbd01c3c3	-0.031680834
224	0x3d339ff4	0.043853715
225	0xbe586360	-0.21131659
226	0xbdfb1fa6	-0.12261896
227	0xbdd3e738	-0.10346836
228	0x3ddd06a9	0.10792286
229	0x3c01269a	0.0078827385
230	0xbd5bcea7	-0.053663876
231	0xbdc3658f	-0.09540855
232	0xbe5ade78	-0.21373928
233	0x3cc38be5	0.023870418
234	0x3b3d80cd	0.0028915883
235	0xbe0f91d3	-0.14020471
236	0x3d9fbaee	0.07799326
237	0xbc08257e	-0.00830972
238	0xbe4fbe1d	-0.20287366
239	0x3d90bdfb	0.07067486
240	0x3d86bbc7	0.065787844
241	0xbda747db	-0.08168002
242	0xbe46b714	-0.19405776
243	0xbd81b4d2	-0.06333317
244	0x3d825f55	0.063658394
245	0x3da391fd	0.079868294
246	0xbe820159	-0.25391653
247	0xbe26b1af	-0.16278718
248	0x3dc907a2	0.09815909
249	0x3d671b8e	0.056422763
250	0x3e1c122c	0.15241307
251	0x3d368421	0.0445596
252	0x3e80f81a	0.25189286
253	0xbe05f7b3	-0.13082771
254	0xbc97b5f6	-0.018519383
255	0xbc448c1c	-0.011996295

encoder.0.bias f4 [20]
0	0xbc568c18	-0.013094924
1	0xbdf10862	-0.11769177
2	0xbe1ebdad	-0.15502043
3	0xbde804fb	-0.11329075
4	0xbe15adc0	-0.14617062
5	0x3deaf07c	0.1147165
6	0xbc58b483	-0.013226631
7	0xbe05d68b	-0.13070123
8	0x3e1c74ca	0.15278926
9	0x3d1e34af	0.03862446
10	0x3db7d296	0.08975713
11	0x3e01ca6d	0.12674876
12	0x3e433b82	0.19065669
13	0xbdc51c06	-0.09624486
14	0xbc3f274c	-0.011667084
15	0xbe219f4a	-0.1578342
16	0x3e154989	0.14578833
17	0xbce01acc	-0.027356528
18	0xbdc0a890	-0.09407151
19	0x3ccdde4c	0.025130413

encoder.2.weight f4 [40, 20, 11]
0	0x3e331297	0.1748756
1	0x3de7135a	0.11282988
2	0x3df8fce5	0.12157611
3	0x3db0f2a6	0.086400315
4	0xbbcf877b	-0.006333289
5	0xbdcdb8b6	-0.100449964
6	0xbde93387	-0.11386781
7	0xbe6123f1	-0.21986367
8	0xbda417ee	-0.08012377
9	0xbd557a81	-0.052118782
10	0xbc8146fa	-0.015780915
11	0xbddff8f4	-0.10936156
12	0xbccfd33d	-0.025369281
13	0xbdcc88be	-0.09987019
14	0xbe1dd14b	-0.1541187
15	0x3d500cc2	0.050793417
16	0xbb809a02	-0.003924609
17	0x3d4a4b6a	0.049388327
18	0x3da48afa	0.0803432
19	0x3d8fc722	0.070204034
20	0xbcb1e0cf	-0.021713642
21	0xbc90dc4d	-0.017683173
22	0x3c6217d6	0.013799628
23	0x3ce3196f	0.027722089
24	0x3c991b9e	0.018689927
25	0xbd3fa4de	-0.04678809
26	0x3d386064	0.0450138
27	0x3bdcf6fb	0.0067433096
28	0xbd0ae8bb	-0.033913355
29	0x3ce42414	0.027849235
30	0xbd87513d	-0.06607292
31	0x3d642557	0.055699673
32	0x3c1aa5ba	0.009438926
33	0xbdb309ad	-0.0874208
34	0xbd634cbc	-0.0554931
35	0x3c8bf704	0.01708556
36	0x3d378d57	0.044812527
37	0x3c290728	0.010316648
38	0x3d58853e	0.052861445
39	0xbd08f6a0	-0.033438325
40	0xbcca443d	-0.024690742
41	0x3d4c160a	0.049825706
42	0xbbdcc1f8	-0.00673699
43	0xbc25d6fb	-0.010122056
44	0xbe63e049	-0.22253527
45	0xbdf0fda8	-0.11767131
46	0xbe779a3e	-0.24179932
47	0xbd1c2db1	-0.038129512
48	0xbd6a3d7d	-0.057187546
49	0x3b1332d3	0.0022460714
50	0x3de26c52	0.11055817
51	0x3ddc3086	0.107514426
52	0x3dc4e7da	0.09614535
53	0x3d23d6d8	0.039999813
54	0xbd4a1326	-0.049334668
55	0x3cc79d44	0.024366982
56	0x3d3a13bc	0.045428976
57	0x3d6a2e4b	0.057173055
58	0x3d186ad7	0.037211265
59	0x3d68a0cd	0.056793977
60	0xbd902972	-0.07039155
61	0xbd995a2e	-0.074879035
62	0xbcc048cd	-0.023472214
63	0xbc7fdbd6	-0.015616378
64	0x3d3e44d5	0.046452362
65	0x3d3ee6ac	0.046606705
66	0xbe2b53c6	-0.16731176
67	0xbded02cb	-0.11572798
68	0xbdafa3d1	-0.085761674
69	0xbd3f14a8	-0.04665056
70	0xbdcde669	-0.10053713
71	0xbb610dcc	-0.00343405
72	0x3d15be8c	0.036558673
73	0x3e05a56e	0.13051388
74	0x3b414352	0.002948959
75	0xbda79f3e	-0.0818467
76	0xbdb6c02a	-0.08923371
77	0x3de07e97	0.10961645
78	0x3dd9c8f1	0.1063403
79	0x3dbcc3f3	0.09217062
80	0x3cbbeabf	0.022939084
81	0xbd8d1ae7	-0.06889897
82	0xbde1ac1b	-0.11019155
83	0xbe3f3776	-0.186735
84	0xbe30a275	-0.17249472
85	0xbd7e8220	-0.062135816
86	0xbde3f91b	-0.111314975
87	0xbc5fa037	-0.013649038
88	0x3de26d35	0.11055986
89	0x3dfb5f27	0.12274008
90	0x3db5f8a9	0.08885319
91	0x3d91a3ea	0.07111342
92	0xbbba7b10	-0.0056909397
93	0xbd90d325	-0.070715226
94	0xbd0d510d	-0.034501124
95	0xbd793a62	-0.060846694
96	0xbdce8352	-0.10083641
97	0x3cf0d5e8	0.029398873
98	0xbaa2f74f	-0.0012433323
99	0x3d713abe	0.05889391
100	0x3d990e0e	0.07473384
101	0x3d0af934	0.033929065
102	0xbcfe7b88	-0.031064764
103	0xbc9254c4	-0.017862685
104	0xbd05ca46	-0.032663606
105	0xbc02bb06	-0.00797916
106	0x3c927114	0.017876185
107	0xbd911a33	-0.07085075
108	0xbc73c577	-0.014878622
109	0x3d21bafc	0.039484963
110	0xbe79792d	-0.24362631
111	0xbe241f79	-0.16027631
112	0xbe2d4d3c	-0.16923994
113	0xbdb30ed5	-0.08743063
114	0xbae2e694	-0.0017311149
115	0x3d5aea8a	0.05344633
116	0x3e0fc345	0.14039333
117	0x3d9927b8	0.07478279
118	0x3db1cf76	0.08682148
119	0xbd370ef8	-0.04469201
120	0xbd8dd44c	-0.06925258
121	0x3d30889d	0.043099035
122	0x3c095ce6	0.008383965
123	0x3cf9f03b	0.030510059
124	0x3d319f62	0.04336489
125	0xbcd9da2b	-0.026593288
126	0x3ca320eb	0.019913157
127	0xbc654b3a	-0.013994986
128	0x3d6904d1	0.05688936
129	0x3d023ad0	0.03179437
130	0xbbb97f9e	-0.005660965
131	0xbd359c5c	-0.04433857
132	0x3d8c7df3	0.068599604
133	0x3d1e0532	0.038579173
134	0x3bd103f7	0.0063786465
135	0x3d884cc1	0.06655265
136	0x3c62a6d5	0.013833721
137	0x3dae2858	0.08503789
138	0xbd91da68	-0.07121736
139	0xbaebaca9	-0.0017980534
140	0xbd87555f	-0.0660808
141	0xbd6e62d7	-0.05819973
142	0xbc7028bb	-0.014658148
143	0xbe0bc1d9	-0.13648166
144	0xbe39d18b	-0.1814634
145	0xbe1ac082	-0.15112498
146	0xbd842c3d	-0.0645375
147	0x3c9d6422	0.019212786
148	0x3c0fd9e0	0.008779973
149	0x3dcd9c8f	0.10039627
150	0x3e1eee86	0.15520677
151	0x3d3097be	0.043113463
152	0x3cc25d33	0.023726081
153	0xbd8f1257	-0.0698592
154	0xbdcafbd9	-0.099113174
155	0xbe1a1341	-0.15046407
156	0xbdd8c13f	-0.10583734
157	0xbd99c687	-0.07508569
158	0x3c525180	0.012836814
159	0x3d8fbd0e	0.07018481
160	0x3dd85332	0.10562743
161	0x3dcc7f74	0.09985247
162	0x3e105b78	0.14097393
163	0x3d847ab3	0.064687155
164	0xbcfd157e	-0.030894037
165	0x3dffdff5	0.12493888
166	0x3dec0d0d	0.11525927
167	0x3d26152b	0.04054753
168	0xbd149ae4	-0.036280528
169	0xbbb23a41	-0.0054390733
170	0xbe0be574	-0.13661748
171	0xbe0421fe	-0.12903592
172	0xbe530c99	-0.20610274
173	0xbd973a80	-0.07384205
174	0xbd92b6b2	-0.071637526
175	0x3d396159	0.045258854
176	0xbd0e60d5	-0.034760315
177	0x3b9e61b0	0.0048334226
178	0xbd6294d3	-0.05531771
179	0x3c2cb346	0.010540789
180	0x3ca943d9	0.020662235
181	0x3d2626f8	0.040564507
182	0x3d516f84	0.05113174
183	0x3c26fc91	0.010192052
184	0xbc95b9b6	-0.01827703
185	0x3c15d840	0.009145796
186	0xbd24fccc	-0.04028015
187	0x3dc2deec	0.09515175
188	0x3d43c0d1	0.047791306
189	0x3d3ca1a7	0.0460526
190	0x3dd63cbb	0.10460802
191	0x3b68860b	0.0035480286
192	0xbd9889e3	-0.07448175
193	0xbe35ccfd	-0.17753978
194	0xbd92bf29	-0.07165367
195	0xbe10f6db	-0.14156668
196	0xbdd51adb	-0.10405513
197	0xbdac8039	-0.08422894
198	0x3ddb80c0	0.107179165
199	0x3d9acf9d	0.0755913
200	0x3db3bb75	0.08775989
201	0xbd379bf6	-0.04482647
202	0x3cd9975b	0.02656143
203	0xbe135caa	-0.14390817
204	0xbde5eaed	-0.11226449
205	0xbe095a62	-0.13413385
206	0xbe2f91f3	-0.17145519
207	0xbd7ad061	-0.06123388
208	0xbd89f2c6	-0.067357585
209	0x3e02e280	0.12781715
210	0x3d680391	0.056644026
211	0x3dad5d1d	0.084650256
212	0xbc653453	-0.013989526
213	0x3c0e9ce1	0.008704395
214	0xbda932db	-0.08261653
215	0xbdcf7bb7	-0.101310186
216	0xbd6f849a	-0.058476068
217	0xbd7d531b	-0.061846834
218	0xbc769e49	-0.015052387
219	0x3d847966	0.064684674
220	0xbcdf7052	-0.027275238
221	0x3df08c6f	0.117455356
222	0xbc113639	-0.008863025
223	0xbe59a0bb	-0.2125272
224	0xbd70b09d	-0.05876218
225	0x3dfee811	0.12446607
226	0x3de2dea7	0.11077624
227	0x3cbdbdaf	0.023161737
228	0xbca8d21b	-0.020607999
229	0xbe4e6d6e	-0.20158932
230	0xbe036030	-0.12829661
231	0x3d244a53	0.040109944
232	0xbd40b72f	-0.047049697
233	0x3bdb498b	0.0066921166
234	0x3ad0fa29	0.0015943694
235	0x3df08dab	0.11745771
236	0x3de84bf0	0.11342609
237	0x3ceba647	0.02876581
238	0x3d2ab452	0.041675873
239	0x3d31d81c	0.04341899
240	0x3d751214	0.059831694
241	0x3e27a740	0.16372395
242	0x3c02f25c	0.007992353
243	0x3d0e8475	0.03479429
244	0xbd46f8d9	-0.048577163
245	0xbe396aeb	-0.18107192
246	0x3d158edd	0.0365132
247	0xbb698f01	-0.0035638215
248	0xbc888439	-0.016664611
249	0xbd9303e9	-0.0717848
250	0xbd8ec96e	-0.069720134
251	0xbe31266a	-0.1729981
252	0x3cb352e3	0.02189011
253	0xbd4f805f	-0.050659534
254	0x3bd809c8	0.006592963
255	0xbc39291a	-0.011301303

encoder.2.bias f4 [40]
0	0x3d7efa1b	0.062250238
1	0x3bca762b	0.0061786375
2	0xbdb3c088	-0.08776957
3	0xbd970fac	-0.07376036
4	0xbbb15fec	-0.005413046
5	0x3d4794ae	0.048725776
6	0x3d9ce077	0.07660001
7	0xbd6ceb95	-0.057841856
8	0xbda9562b	-0.08268388
9	0x3c7ddf61	0.015495152
10	0xbd9766e3	-0.07392671
11	0xb9aae474	-0.00032595138
12	0xbd9c0d7f	-0.07619762
13	0xbd5ccdd9	-0.05390725
14	0xbda4c928	-0.0804618
15	0x3cf9c042	0.030487183
16	0x3ceae830	0.028675169
17	0xbce26208	-0.027634636
18	0xbd94b91e	-0.07261871
19	0xbdfc911e	-0.123323664
20	0x3cff4907	0.031162752
21	0x3bb2540a	0.005442147
22	0xbc911bac	-0.01771339
23	0x3bbbee2d	0.00573518
24	0xbcfc3f7b	-0.030791989
25	0xbca5d5d6	-0.020243566
26	0xbe0310e7	-0.12799416
27	0xbd9b33e6	-0.07578258
28	0xbd83e355	-0.064398445
29	0x3d5fee06	0.054670356
30	0xbce3ac35	-0.027792076
31	0xbd54f5e1	-0.0519923
32	0xbdd20222	-0.10254313
33	0x3c823f07	0.015899194
34	0xbcf8ecde	-0.030386385
35	0xbdaaeec8	-0.08346325
36	0x3d554ff0	0.052078187
37	0x3cd2f470	0.025751323
38	0xbcd8d7dd	-0.02647012
39	0x3cbb4251	0.02285877

encoder.4.weight f4 [80, 40, 9]
0	0xbc0bb166	-0.008526182
1	0xbd42467e	-0.047430508
2	0xbdb66bfa	-0.08907314
3	0xbd18fd03	-0.037350666
4	0xbd926268	-0.07147676
5	0xbd93124d	-0.07181225
6	0x3c6e41dd	0.01454207
7	0xbe08b1db	-0.13349096
8	0x3cdddbd7	0.027082367
9	0x3dee6122	0.1163962
10	0x3cf19127	0.02948816
11	0xbcf2732d	-0.029595936
12	0x3c7967f6	0.01522254
13	0x3b5624c2	0.0032675718
14	0xbdcdb43a	-0.10044141
15	0x3d559dd9	0.05215249
16	0x3d61c398	0.055118173
17	0xbc9c4e25	-0.019080231
18	0x3c70173e	0.014653979
19	0xbc406e98	-0.011745118
20	0x3c3087c9	0.010774561
21	0x3c9fbe9b	0.019500067
22	0x3d194660	0.03742063
23	0xbde864af	-0.11347329
24	0x3d0bb190	0.034104884
25	0x3ca8dbb6	0.020612579
26	0x3aa2a10f	0.0012407618
27	0xbd90b734	-0.07066193
28	0xbcb94ae2	-0.022618715
29	0x3d1a3cf9	0.037655804
30	0x3c7507d3	0.014955479
31	0x3cd5218b	0.026016971
32	0xbd357ac3	-0.044306528
33	0x3c8cf71f	0.01720768
34	0x3c9893b0	0.01862511
35	0x3d8ecf52	0.06973137
36	0xbb9b5d4e	-0.0047413474
37	0x3d188ddf	0.037244674
38	0x3c3b6676	0.011438003
39	0xbc56afeb	-0.013103466
40	0x3cfd091f	0.030888138
41	0x3c19aeac	0.009380024
42	0x3c1a2ac0	0.009409606
43	0x3c88c16b	0.016693791
44	0xbd5666d6	-0.052344166
45	0xbc9007db	-0.01758187
46	0x3cae94fc	0.021311276
47	0xbd1f68e3	-0.038918387
48	0xbdcab777	-0.098982744
49	0xbb465114	-0.0030260729
50	0x3c98b6e4	0.018641897
51	0xbd8e2392	-0.06940378
52	0xbdac517c	-0.084139794
53	0xbc9e0c0e	-0.019292857
54	0xbddf0d6e	-0.108912334
55	0x3da7bd4d	0.08190403
56	0x3c46e031	0.012138412
57	0xbe03235b	-0.12806456
58	0xbdf284de	-0.11841749
59	0xbde71eb3	-0.11285152
60	0xbe24fc9e	-0.16111991
61	0xbdd2c13e	-0.10290764
62	0x3d5db4c0	0.054127455
63	0x3d0e44fc	0.034733757
64	0xbce97004	-0.028495796
65	0x3cf44aee	0.029820886
66	0xbc3d83fd	-0.011567113
67	0x3c9a8f77	0.018867237
68	0xbd24f135	-0.040269095
69	0x3d29ab14	0.04142292
70	0x3c83292c	0.016010843
71	0x3d0975a9	0.033559475
72	0x3c97609a	0.01847868
73	0x3ae63c66	0.0017565608
74	0xbd4accdf	-0.049511787
75	0x3d7a8a58	0.06116709
76	0xbd618f7b	-0.055068474
77	0xbd2ffcf3	-0.04296584
78	0x3dbc7341	0.092016704
79	0x3d0ea865	0.034828562
80	0xbd1b14bd	-0.037861574
81	0x3cfbd9c8	0.030743495
82	0x3d16547b	0.03670166
83	0x3d48760e	0.04894071
84	0x3c80a42c	0.015703283
85	0xbd81c06f	-0.06335532
86	0xbcdd89f9	-0.02704333
87	0xbd676fd1	-0.05650312
88	0x3d0c17de	0.03420245
89	0x3d196675	0.037451226
90	0x3b9c80fd	0.004776119
91	0xba18d501	-0.000583008
92	0xbd37b1ee	-0.04484742
93	0xbd252769	-0.040320788
94	0xbb1a27b8	-0.002352221
95	0x3c635709	0.013875731
96	0xbcb0b29a	-0.021569539
97	0x3c0c7878	0.008573644
98	0x3d1066b4	0.035254195
99	0xbc699d6b	-0.014258723
100	0x3c9c8282	0.0191052
101	0x3c69fa6c	0.014280897
102	0xbd3231e4	-0.04350461
103	0xbd1f663a	-0.03891585
104	0x3cee903d	0.029121513
105	0x3d23f352	0.04002697
106	0xbd91e427	-0.07123595
107	0xbc7ddb02	-0.01549411
108	0x3c963e34	0.018340208
109	0x3c94ee7d	0.018180126
110	0x3d4f9824	0.050682202
111	0xbc2ce38a	-0.010552296
112	0x3d6cc96d	0.057809282
113	0xbcab7da3	-0.020933932
114	0xbe3f2323	-0.18665747
115	0x3c0882ee	0.008331997
116	0xbc6a7049	-0.014308997
117	0x3cfd06c1	0.03088701
118	0xbaffdf32	-0.0019521473
119	0xbc4c37d0	-0.012464479
120	0x3d0d5a75	0.034510095
121	0x3d1b8309	0.03796676
122	0x3dbf3cf1	0.093377955
123	0xbcb68f26	-0.022285055
124	0x3d5a4a85	0.053293724
125	0xbd916b29	-0.07100517
126	0xbc332a0f	-0.0109353205
127	0xbc1a4937	-0.00941687
128	0xbcd6c1d9	-0.02621548
129	0x3d19ccf9	0.037548993
130	0xbd8d0474	-0.06885615
131	0x3df1a1f0	0.11798465
132	0x3db33b40	0.087515354
133	0x3d303c31	0.043026153
134	0x3b72e80f	0.0037064587
135	0x3d6696fa	0.056296326
136	0xbd561957	-0.05227026
137	0x3cca4370	0.02469036
138	0x3c057883	0.008146408
139	0xbce022f6	-0.02736042
140	0xbd26c889	-0.04071859
141	0x3d21f799	0.03954277
142	0x3d13d918	0.03609571
143	0x3d274cb8	0.04084465
144	0x3ca75151	0.020424517
145	0x3deecf63	0.116606496
146	0xbdce1299	-0.10062141
147	0x3bebf52c	0.0072008576
148	0xbcf677cd	-0.030086422
149	0xbde80b15	-0.11330239
150	0xba7567bf	-0.00093614677
151	0xbd22e527	-0.039769318
152	0xbbf01fa9	-0.007327993
153	0x3e512824	0.20425469
154	0x3c92674d	0.017871523
155	0x3cc96078	0.024582133
156	0x3bee4a8a	0.0072720693
157	0xbdc5ddbf	-0.09661435
158	0x3d8340e0	0.06408858
159	0xbd404443	-0.0469401
160	0xbd0b3e06	-0.033994697
161	0x3d917c42	0.071037784
162	0x3d513dce	0.051084332
163	0x3cb34f07	0.02188827
164	0x3cc64bf5	0.024206141
165	0xbdad83a6	-0.084723756
166	0xbc4ce08e	-0.01250471
167	0x3d0545ac	0.032537147
168	0xbc7e502b	-0.015522043
169	0x381f4ad2	3.7978236e-05
170	0xbd5e19ce	-0.054223828
171	0x3da38f51	0.0798632
172	0xbc79fb22	-0.015257629
173	0xbbca13ba	-0.0061669024
174	0x3df52c9d	0.119714
175	0xbd2256df	-0.039633628
176	0x3d5dfe61	0.054197673
177	0xbd92e499	-0.07172508
178	0x3ca00a36	0.019536119
179	0x3e1f5fbb	0.15563862
180	0xbd11e329	-0.035617027
181	0x3d11386a	0.03545419
182	0x3b12cac2	0.0022398685
183	0xbcdf1dc4	-0.027235873
184	0xbd321ec6	-0.04348638
185	0xbddf68fe	-0.109086975
186	0xbd6b14a4	-0.05739273
187	0xbd588b71	-0.052867357
188	0x3cb5c46b	0.022188386
189	0x3cf54233	0.029938793
190	0x3d1a1126	0.03761401
191	0x3d61b4b2	0.055103965
192	0x3d3e59d6	0.046472393
193	0x3d1da660	0.038488746
194	0x3d1ff40a	0.039051093
195	0x3ba765fc	0.005108593
196	0x39e87471	0.00044337244
197	0x3d138fc6	0.036025785
198	0xbbbe9c14	-0.005816946
199	0xbd4fdd18	-0.05074796
200	0xbd52c771	-0.051459733
201	0x3d30192c	0.042992756
202	0x3c2c66ee	0.010522587
203	0x3bbf3907	0.0058356556
204	0xbbfa0ffb	-0.0076312996
205	0xbd2c8ca6	-0.04212632
206	0x3cf07ea7	0.029357268
207	0x3c698a8c	0.014254224
208	0xbd074448	-0.033024102
209	0x3cd4fd4d	0.02599969
210	0xbd023508	-0.031788856
211	0xbd52c390	-0.051456034
212	0x3d2b9f59	0.041900013
213	0xbab522c1	-0.0013819562
214	0x3d15d447	0.036579397
215	0xbd29c44f	-0.04144698
216	0xbd658cb3	-0.056042384
217	0x3c0397b9	0.008031779
218	0x3c8d6c09	0.01726343
219	0x3c205f06	0.00978828
220	0x3d625060	0.055252433
221	0x3d567c5c	0.052364692
222	0xbcf45586	-0.029825937
223	0xbd2ff44c	-0.04295759
224	0xbb216393	-0.0024626001
225	0x3d23f672	0.04002995
226	0xbd12086a	-0.035652556
227	0xbbabe86e	-0.0052462136
228	0x3c0bf736	0.008542826
229	0x3c980ae7	0.018559886
230	0x3cd3bf1d	0.025847966
231	0xbb1d4fe9	-0.002400393
232	0x3b594682	0.0033153598
233	0x3d03ebe5	0.03220739
234	0x3cfa4050	0.030548245
235	0x3da30cbd	0.07961414
236	0xbd6b4aca	-0.05744437
237	0x3bf35b47	0.0074266526
238	0xb9f22e42	-0.00046192302
239	0xbcc732d4	-0.024316229
240	0x3d26aacf	0.04069024
241	0x3da91079	0.08255095
242	0x3d06e400	0.03293228
243	0xbd5df353	-0.05418713
244	0xbd5b8556	-0.053593956
245	0xbd0ffda4	-0.035154
246	0xbc5e2176	-0.013557782
247	0xbd8a47a6	-0.06751947
248	0x3c31fe90	0.010863915
249	0x3d1615f2	0.036642022
250	0x3bbce4a8	0.0057645626
251	0xbbe7bf22	-0.0070723454
252	0x3e0aa3aa	0.13538995
253	0x3e534121	0.20630313
254	0xbc9107b7	-0.017703874
255	0xbcb90cf7	-0.02258919

encoder.4.bias f4 [80]
0	0xbdf7229e	-0.120671496
1	0xbd7d7972	-0.061883397
2	0xbdce9f5a	-0.10088988
3	0xbe0338ae	-0.1281459
4	0xbca4f155	-0.020134607
5	0xbc067d51	-0.008208589
6	0xbd06164e	-0.032736115
7	0xbda4a738	-0.08039707
8	0xbdb45f8b	-0.08807286
9	0xbc2147a5	-0.009843742
10	0xbd957d73	-0.07299318
11	0xbb8772b5	-0.004133547
12	0xbdf3f78e	-0.11912452
13	0xbdbe6c71	-0.09298027
14	0x3ccf8f00	0.025336742
15	0xbdb59111	-0.0886556
16	0xbde63605	-0.11240772
17	0xbd15ef8b	-0.0366054
18	0xbd7a4e0e	-0.061109595
19	0x3d94599d	0.07243655
20	0xbda11b0b	-0.07866486
21	0xbd278a2a	-0.040903248
22	0x3d2a497c	0.041573986
23	0xbd5080dd	-0.050904144
24	0xbbd86529	-0.006603856
25	0xbdb58cfb	-0.088647805
26	0xbd745bef	-0.059657987
27	0xbdabff67	-0.083983235
28	0xbe0b1c1f	-0.13584946
29	0xbe037ca5	-0.12840517
30	0xbd8f1fba	-0.06988473
31	0xbe059d73	-0.13048343
32	0xbe00d8d1	-0.12582709
33	0xbdde06f2	-0.108411685
34	0xbc179b00	-0.0092532635
35	0xb9b8afbd	-0.0003522615
36	0xbd9c1daa	-0.076228455
37	0xbd80668c	-0.06269559
38	0x3c61f5b0	0.013791487
39	0xbd6cdaec	-0.057825968
40	0xbc773509	-0.015088328
41	0x3b84336d	0.0040344507
42	0xbcb0baa2	-0.021573368
43	0xbd8aac14	-0.067711025
44	0xbd8c2968	-0.06843835
45	0xbde5df10	-0.112241864
46	0xbd86941b	-0.065712176
47	0xbcb7af1e	-0.02242237
48	0x3c656810	0.014001861
49	0x3b2abea7	0.002605358
50	0xbd82a817	-0.06379717
51	0xbddd3aae	-0.10802208
52	0xbdb4c410	-0.088264585
53	0xbdf9b51d	-0.12192748
54	0xbd86d5e0	-0.06583762
55	0xbd86acaf	-0.065759055
56	0xbd8b0ce9	-0.06789572
57	0xbdb824b8	-0.089913785
58	0xbda78e8b	-0.08181485
59	0xbcbee602	-0.023303036
60	0xbd8a9058	-0.06765813
61	0xbdcbfc78	-0.09960264
62	0xbdb89959	-0.09013624
63	0xbd96bf5d	-0.073607184
64	0xbb9ae13a	-0.004726556
65	0xbda16e06	-0.078823134
66	0xbd89e685	-0.06733421
67	0xbe118b7e	-0.14213368
68	0xbdb6b7d3	-0.089217804
69	0xbdbfd8bc	-0.09367511
70	0xbd197dac	-0.037473366
71	0xbd6c28d1	-0.057656113
72	0x3d26c381	0.04071379
73	0xbd54e9f4	-0.051980928
74	0xbc97380f	-0.018459348
75	0xbe339c44	-0.1754008
76	0xbd7d377a	-0.061820485
77	0xbdd5ee96	-0.10445897
78	0xbd9b2193	-0.07574763
79	0xbb5b4765	-0.0033459303

encoder.6.weight f4 [160, 80, 7]
0	0x3e02eaf1	0.12784936
1	0x3d7159b5	0.058923442
2	0x3c6e50fd	0.014545676
3	0x3dab92b4	0.08377591
4	0x3cdb2e2a	0.026755411
5	0xbd1ad78a	-0.03780321
6	0xbd2054f1	-0.039143506
7	0x3dceba27	0.100940995
8	0x3a453787	0.0007523228
9	0xbd9a5e8a	-0.07537563
10	0xbd25915d	-0.040421832
11	0xbc4908fd	-0.012270209
12	0x3d2000cb	0.039063256
13	0x3c06ef86	0.008235818
14	0x3d2ac874	0.041695073
15	0xbc17f546	-0.009274786
16	0xbcbee465	-0.023302266
17	0xbd8700cf	-0.06591951
18	0x3c9251fa	0.017861355
19	0x3c1be233	0.009514379
20	0xbda72ae5	-0.08162478
21	0x3da47cb0	0.08031595
22	0xbd569108	-0.052384406
23	0x3cefb935	0.029263118
24	0xbd0362fb	-0.032076817
25	0x3b4a156e	0.0030835527
26	0xbd86d281	-0.06583119
27	0xbe51a3a1	-0.20472576
28	0x3a46172a	0.00075565523
29	0xbc8cfb51	-0.01720968
30	0xbd39661b	-0.04526339
31	0xbd341066	-0.04396095
32	0xbc2224e7	-0.0098964935
33	0xbcf90c52	-0.030401383
34	0x3c47d397	0.012196443
35	0x3dd08f80	0.101836205
36	0xbc75ecfd	-0.015010116
37	0xbd8dbdfb	-0.069210015
38	0xbd20d7b2	-0.039268203
39	0x38c2cfb2	9.289327e-05
40	0x3d0036ad	0.031302143
41	0xbd06f6cc	-0.032950208
42	0xbc4b13e2	-0.012394877
43	0xbbe7fcca	-0.0070796954
44	0xbbc9f3ba	-0.0061630877
45	0xbca28b90	-0.01984194
46	0xbd812c26	-0.06307249
47	0xbac516eb	-0.0015036737
48	0xbc17b853	-0.009260255
49	0x3d0f0b96	0.03492316
50	0xbbb5e20c	-0.0055506285
51	0xbc9dcd56	-0.01926295
52	0xbd2b067c	-0.04175423
53	0xbcc18a93	-0.023625648
54	0xbd12487c	-0.035713658
55	0xbc920931	-0.017826648
56	0x3a4b4916	0.0007754726
57	0x3c357385	0.011074905
58	0x3bce904c	0.0063038226
59	0x3cb42e57	0.021994753
60	0xbdaf62e4	-0.08563784
61	0x3d305a30	0.04305476
62	0x3c2e2e56	0.010631165
63	0x3d8e05e3	0.069347166
64	0x3dc3b679	0.09556288
65	0x3cbf1111	0.023323568
66	0x3d10515e	0.035233848
67	0x3d3fb585	0.04680397
68	0x3de72160	0.11285663
69	0xbd52ede5	-0.051496405
70	0xbd55ec26	-0.05222716
71	0x3e433aba	0.19065371
72	0x3da098f7	0.07841676
73	0x3e66fcc0	0.22557354
74	0x3dfeaf88	0.12435824
75	0x3e29a0be	0.16565225
76	0x3dba4e58	0.09096974
77	0xbd152acd	-0.03641777
78	0x3d2311f9	0.039812062
79	0xbce12fcb	-0.02748861
80	0xbcdb8008	-0.026794448
81	0x3c8344d6	0.016024034
82	0xbc41da55	-0.01183184
83	0xbd6e94f2	-0.058247514
84	0x3d26192a	0.040551342
85	0xbd55c5ce	-0.052190594
86	0xbc2e6c9c	-0.010646012
87	0x3ca0221d	0.019547516
88	0x3cd79121	0.02631432
89	0xbc85897c	-0.01630091
90	0xbcb39b04	-0.021924503
91	0xbe15d53d	-0.14632125
92	0xbd58f1dd	-0.052965034
93	0x3d8c757e	0.06858347
94	0xbe4c7f5d	-0.1997046
95	0xbe2d6fb7	-0.16937147
96	0xbd737213	-0.05943496
97	0x3d5a5996	0.053308092
98	0xbdb0b91f	-0.08629059
99	0xbdc8c480	-0.098031044
100	0xbe5e2f83	-0.21697812
101	0xbe16fa60	-0.14743948
102	0xbda7945d	-0.08182595
103	0xbd34e5c0	-0.04416442
104	0xbc475685	-0.012166624
105	0x3c05b1f0	0.008160099
106	0x3c8ce18e	0.017197397
107	0x3d7e5f2d	0.062102485
108	0x3c545333	0.012959289
109	0xbc53f2c5	-0.012936299
110	0x3c6da39a	0.014504338
111	0xbd5677d1	-0.05236036
112	0x3c9fb0be	0.019493457
113	0x3da3517a	0.07974525
114	0x3dc485e0	0.09595847
115	0xbd2ef854	-0.042717293
116	0xbd1d034d	-0.038333226
117	0x3d83edc7	0.06441837
118	0xbcd913d7	-0.026498718
119	0xbe2927b5	-0.16519053
120	0x3c140b7e	0.009035943
121	0xbe23d6cb	-0.15999906
122	0xbddeff34	-0.1088852
123	0xbdbc271c	-0.09187147
124	0xbe3009d8	-0.17191255
125	0xbe374ddd	-0.17900796
126	0x3cbaa0b8	0.022781715
127	0x3bb8df95	0.0056418874
128	0x3d2b1e4b	0.041776937
129	0xbcd84b1c	-0.026403002
130	0x3dca028e	0.098637685
131	0x3c083856	0.008314213
132	0xbc566d95	-0.01308765
133	0xbcad97e6	-0.021190595
134	0xbc97f951	-0.0185515
135	0x3c812e1b	0.015769055
136	0xbd2e4f89	-0.04255632
137	0x3bfdc8f1	0.0077449013
138	0xbb8d383d	-0.0043096826
139	0xbd100bfd	-0.035167683
140	0xb805fcd9	-3.1945154e-05
141	0x3c962b32	0.018331144
142	0x3d15325c	0.03642498
143	0xbd1ef805	-0.03881075
144	0xbc044885	-0.008073931
145	0xbb31bc7e	-0.0027120407
146	0x3db36d08	0.087610304
147	0x3dba303b	0.090912305
148	0x3e8215d0	0.25407267
149	0x3e8248e1	0.25446227
150	0x3e898b6e	0.2686419
151	0x3df32080	0.11871433
152	0xbc3722f2	-0.011177765
153	0xbcff065e	-0.031130966
154	0xbd4f7837	-0.050651755
155	0x3c737979	0.014860504
156	0xbc7c6217	-0.015404246
157	0xbd31b360	-0.043383956
158	0xbcba3713	-0.02273134
159	0xbce15731	-0.027507396
160	0xbbbc46fc	-0.0057457667
161	0x3c52203f	0.012825071
162	0x3db8a118	0.09015101
163	0x3d0098f2	0.03139586
164	0xbb46a8bd	-0.0030312978
165	0x3d882543	0.06647732
166	0x3dc28aa8	0.09499103
167	0x3d02566d	0.031820703
168	0xbd96dbf2	-0.0736617
169	0xbc768d39	-0.015048319
170	0x3cc6fdce	0.024290945
171	0xbc2377de	-0.009977309
172	0x3a860854	0.0010225871
173	0xbca2c796	-0.01987056
174	0xbc493ea9	-0.012283006
175	0xbd93ba14	-0.07213226
176	0xbe2c6f9b	-0.16839449
177	0x3d445953	0.04793675
178	0xbd98243c	-0.07428786
179	0xbeaf8711	-0.34282735
180	0xbdead34f	-0.11466085
181	0x3c5f411b	0.013626362
182	0x3bdc1504	0.0067163724
183	0xbb931cbc	-0.0044895094
184	0x3cfc3b4a	0.03078999
185	0xbc4f07ab	-0.0126361055
186	0xbd4f3762	-0.050589927
187	0xbd526d37	-0.051373687
188	0xbd20e402	-0.039279945
189	0x3d41c381	0.047305588
190	0x3d1a2d26	0.037640713
191	0xbc874f3c	-0.016517274
192	0x3cb6a69f	0.022296248
193	0x3c52eb09	0.01287342
194	0xbcb9242d	-0.022600258
195	0x3d2c187d	0.04201554
196	0x3d6a7d8b	0.057248633
197	0xbcc0d256	-0.023537796
198	0x3cd89842	0.02643979
199	0x3d973f20	0.07385087
200	0x3c9abb9c	0.018888287
201	0xbc0363e1	-0.008019418
202	0x3c0957f9	0.008382791
203	0xbc52430d	-0.012833369
204	0x3d92e79b	0.071730815
205	0x3d196d51	0.037457768
206	0xbd43fa38	-0.04784605
207	0xbd8bd8f0	-0.06828487
208	0xbc15add1	-0.009135679
209	0x3ce0b702	0.027431015
210	0x3d5b33d4	0.053516224
211	0x3d24f258	0.04027018
212	0x3cbc5a84	0.02299238
213	0x3d30e23e	0.04318451
214	0x3d4e0bf7	0.05030438
215	0x3c45aa0a	0.012064466
216	0x3d4ab45b	0.049488407
217	0xbcb6deaa	-0.022322971
218	0xb93820c5	-0.00017559815
219	0xbbfb73ed	-0.0076737315
220	0xbb67fee2	-0.0035399725
221	0xbd834139	-0.064089246
222	0xbbcf8856	-0.006333391
223	0x3c7e0ef1	0.015506492
224	0x3d0d54a7	0.03450456
225	0x3dcfa2b4	0.10138455
226	0x3b901921	0.004397527
227	0xbc9c759c	-0.01909905
228	0xbc9376ce	-0.018000986
229	0xbab20020	-0.001358036
230	0x3d6813e2	0.056659587
231	0x3c3d11e4	0.01153991
232	0x3d5c63f6	0.053806268
233	0xbd8f5160	-0.06997943
234	0xbd4cb9ac	-0.049981758
235	0xbcbec3a4	-0.023286648
236	0xbc24d087	-0.010059482
237	0x3c6af47b	0.014340515
238	0x3cf29172	0.02961037
239	0x3cb3d11f	0.021950303
240	0xbbcec990	-0.006310649
241	0x3a0ca4cc	0.0005365133
242	0xbc79e7b8	-0.015253
243	0xbc11f51a	-0.008908534
244	0x3d434794	0.047675684
245	0x3d34b677	0.044119325
246	0xbba52b91	-0.005040594
247	0xbd4becea	-0.049786486
248	0x3c1c5c93	0.009543556
249	0xbac6b1e4	-0.0015159217
250	0xbcf9f7a3	-0.03051359
251	0xbbe851b6	-0.007089819
252	0xbd96068a	-0.07325466
253	0x3d572c91	0.052532736
254	0x3d86f16e	0.06589018
255	0x3c3fabd0	0.011698678

encoder.6.bias f4 [160]
0	0x3c1c22c7	0.009529776
1	0x3c8f10d1	0.017464073
2	0xbcc28604	-0.023745544
3	0xbdd8923d	-0.10574768
4	0x3dd4d5bd	0.1039233
5	0x3e711c64	0.23545986
6	0x3be2f9c0	0.006926745
7	0xbcc2599d	-0.023724372
8	0x3d3e0058	0.046387047
9	0xb987f2d6	-0.00025930133
10	0x3e077023	0.1322637
11	0x3d43ce13	0.04780395
12	0x3e16cc1e	0.14726302
13	0x3d23d538	0.039998263
14	0x3d598d52	0.05311329
15	0x3dda8bb4	0.106711775
16	0x3bbf222c	0.005832931
17	0xbb6e4c80	-0.0036361516
18	0x3be4eafa	0.006986019
19	0xbe294bf8	-0.16532886
20	0xbe12a504	-0.14320761
21	0x3d4fa7d5	0.050697166
22	0x3d5b4328	0.053530842
23	0xbd269426	-0.04066863
24	0x39862194	0.0002558349
25	0x3c72c307	0.014817006
26	0xbe609528	-0.21931899
27	0xbdc46825	-0.095901765
28	0xbe296e75	-0.16546042
29	0xbda3572c	-0.07975611
30	0x3c8e95ef	0.017405478
31	0xbd2ff9dd	-0.042962898
32	0x3d96df95	0.07366864
33	0xbccd59a9	-0.025067167
34	0x3e215609	0.15755476
35	0x3d53f8e1	0.05175102
36	0x3d19449e	0.037418954
37	0x3cd93ee1	0.02651924
38	0xbcde24e6	-0.027117204
39	0xbdb792bc	-0.08963534
40	0xbd95b282	-0.07309438
41	0x3d5dbcae	0.054135017
42	0x3bc4febd	0.0060118125
43	0x3c385ae9	0.011252143
44	0x3c71c67a	0.014756793
45	0x3db077eb	0.086166225
46	0xbe0124aa	-0.12611642
47	0x3cacd318	0.021096751
48	0x3e0a89a4	0.13529068
49	0xbd9bf863	-0.076157354
50	0x3e385f45	0.18005092
51	0xbd0256e6	-0.031821154
52	0xbda0d9fd	-0.07854078
53	0x3d8aa16f	0.06769072
54	0x3c063702	0.008191826
55	0xbe4177df	-0.18893383
56	0x3de33956	0.1109492
57	0xbe3a6aae	-0.18204758
58	0xbdaf77bf	-0.08567762
59	0xbc9ebe5b	-0.019377878
60	0x3c92703c	0.017875783
61	0x3e2a0b68	0.16605914
62	0x3cb66d04	0.02226878
63	0x3e222f9b	0.15838473
64	0x3e2f1f79	0.1710185
65	0x3d8de2cb	0.06928023
66	0xbc99d832	-0.018779848
67	0xbced038f	-0.028932361
68	0xbc4a355a	-0.012341822
69	0xbe64e2d4	-0.22352153
70	0x3d7a256c	0.061070845
71	0x3e131a07	0.14365397
72	0xbdaa1d32	-0.0830635
73	0xbd051e75	-0.03249975
74	0x3de4d3a5	0.111731805
75	0xbe0dca9f	-0.13846825
76	0x3e555630	0.20833659
77	0xbd86e58d	-0.06586752
78	0xbd02d3b7	-0.03194019
79	0x3e3c974b	0.18417089
80	0x3cc4d934	0.024029352
81	0x3dd81528	0.1055091
82	0xbe357eb6	-0.17724118
83	0xbd5a5212	-0.053300925
84	0xbc2e6670	-0.01064454
85	0xbe406f1a	-0.18792382
86	0xbcf54757	-0.029941244
87	0x3e031c1c	0.12803692
88	0x3dd550de	0.10415815
89	0x3d8f46ef	0.069959514
90	0xbe49a4d2	-0.1969178
91	0xbd5a2bf7	-0.053264584
92	0x3deac5bd	0.11463497
93	0xbde3acf6	-0.11116974
94	0x3dbe229c	0.09283945
95	0x3d3228a3	0.043495785
96	0xbcce30af	-0.025169699
97	0x3d9f70dd	0.07785199
98	0xbc046d1e	-0.008082656
99	0xbe0616cc	-0.13094634
100	0x3db8494e	0.08998357
101	0x3d0943be	0.03351187
102	0x3e3d227f	0.1847019
103	0xbd12e2b8	-0.035860747
104	0xbe435f17	-0.19079243
105	0xbe02d908	-0.12778103
106	0xbc0c8f71	-0.008579121
107	0x3e4fb884	0.20285231
108	0x3ce3d7a6	0.02781279
109	0x3dd3a27b	0.10333725
110	0x3c52b4f2	0.012860524
111	0xbd97d75d	-0.07414124
112	0xbd1d4180	-0.038392544
113	0xbd6d7e14	-0.057981566
114	0xbcad83d0	-0.021181017
115	0x3c87f0b1	0.016594263
116	0xbdf31d20	-0.118707895
117	0xbceb679e	-0.028735932
118	0xb77d8756	-1.51114855e-05
119	0xbb498fbc	-0.0030755838
120	0xbda8955e	-0.082316145
121	0x3dead0b6	0.1146559
122	0xbd17dbf4	-0.037074998
123	0x3da91613	0.082561634
124	0xbb3c9f58	-0.00287815
125	0x3b14ae62	0.0022686948
126	0xbe142ab2	-0.14469412
127	0x3d5225ef	0.051305708
128	0x3dd5ed35	0.10445634
129	0x3d99a01f	0.07501244
130	0x3d05b6ab	0.03264491
131	0x3cd36111	0.02580312
132	0xbe293cd8	-0.16527116
133	0x3d38d0c0	0.045120955
134	0xbe6dbeba	-0.23217288
135	0x3cd89e4c	0.02644267
136	0x3cce04e6	0.02514882
137	0xbdb2035a	-0.086920455
138	0x3cfad497	0.030618949
139	0x3e30c866	0.17263946
140	0x3e260c2a	0.16215578
141	0xbe01aee8	-0.12664378
142	0xbd9ef77f	-0.0776205
143	0xbd87f34a	-0.066382006
144	0x3de1915f	0.110140555
145	0xbe10f574	-0.14156133
146	0x3c56f6a0	0.013120323
147	0x3d38d383	0.04512359
148	0x3e27ef33	0.16399841
149	0xbd98014c	-0.07422122
150	0x3c93e44d	0.018053198
151	0x3c9bee29	0.019034462
152	0xbd46d4eb	-0.0485429
153	0x3d846e1c	0.06466314
154	0x3cf4eaa4	0.029897042
155	0x3e0f77e0	0.14010572
156	0x3e49e52c	0.19716328
157	0xbe45b0e8	-0.19305766
158	0x3c294c50	0.010333136
159	0x3e09a8d8	0.13443315

clf.weight f4 [3, 1920]
0	0x3c289e17	0.010291598
1	0x3d8868f5	0.06660644
2	0xbc6b56ff	-0.014364003
3	0x3dbcd9e5	0.092212476
4	0x3d3fe40c	0.04684834
5	0x3d5668e2	0.052346118
6	0xbd6d37f0	-0.057914674
7	0x3d03e838	0.032203883
8	0x3bfd6671	0.0077331592
9	0xbd9b5b21	-0.07585741
10	0x3d8464b1	0.06464518
11	0x3da82c61	0.082115896
12	0x3ddea4f0	0.10871303
13	0x3d9ce283	0.07660391
14	0x3c884cfe	0.016638275
15	0x3e29d5d1	0.1658547
16	0x3dfb9815	0.12284867
17	0x3dae5207	0.08511739
18	0x3d241c0c	0.04006581
19	0x3db50f5a	0.08840819
20	0x3d6b83a0	0.057498574
21	0x3d0af4fa	0.033925034
22	0x3d9e6959	0.07734937
23	0x3df8dbc4	0.12151292
24	0x3e067b5a	0.13132992
25	0x3c91e81f	0.01781088
26	0x3d76fcbd	0.060299624
27	0x3da1cb61	0.079001196
28	0x3d8dcdc8	0.06924015
29	0x3d438864	0.047737494
30	0x3d7d1d27	0.06179538
31	0x3dd821c7	0.105533175
32	0x3da31d23	0.07964542
33	0x3d346ee0	0.04405105
34	0x3d8445c2	0.06458618
35	0x3da3532c	0.07974848
36	0x3c680748	0.014161892
37	0x3baacd94	0.005212495
38	0xbb115236	-0.0022174246
39	0xbc675213	-0.014118689
40	0x3c118a8c	0.00888313
41	0xbc585a52	-0.013205128
42	0x3cd0bda7	0.025481058
43	0x3d449c8d	0.04800086
44	0x3bcb997f	0.0062133665
45	0x3bafa46d	0.0053601773
46	0x3c96e8f9	0.018421637
47	0x3d2fb66f	0.04289859
48	0x3dd012e8	0.10159856
49	0x3db1bb73	0.08678331
50	0x3d7f6328	0.062350422
51	0x3d83cda3	0.064357065
52	0x3d8888dd	0.066667296
53	0x3da3a07e	0.07989596
54	0x3d61eec3	0.05515934
55	0x3d91bb04	0.071157485
56	0x3dc7a268	0.097477734
57	0x3e013f3c	0.12621778
58	0x3d9341d5	0.07190291
59	0x3d746e37	0.05967542
60	0x3d0176ba	0.031607367
61	0x3cabf1cf	0.020989327
62	0x3d65be60	0.05608976
63	0x3d02590c	0.031823203
64	0x3cd53675	0.026026944
65	0x3d369162	0.04457224
66	0x3aef4cc7	0.0018257134
67	0x3d0f46a5	0.03497948
68	0x3d4d4638	0.050115794
69	0x3cde16f0	0.027110547
70	0x3cc738dc	0.024319105
71	0x3d466894	0.048439577
72	0x3bbc8077	0.005752619
73	0x3cf40c77	0.0297911
74	0xbb34e30c	-0.002760115
75	0x3c89513a	0.016762365
76	0xbcbb4daa	-0.022864182
77	0xbcc6dc9d	-0.024275118
78	0x3c13b802	0.009016039
79	0xbcda9800	-0.026683807
80	0xbc6365fd	-0.013879296
81	0x3da5dab7	0.08098357
82	0xbc7e0c31	-0.015505836
83	0xbd50dc2f	-0.050991233
84	0xbdd32684	-0.10310081
85	0xbdcd8c25	-0.10036496
86	0xbdc3d854	-0.09562746
87	0xbd6a0c4e	-0.05714064
88	0xbdb10c4c	-0.086449236
89	0xbdff1bbd	-0.124564625
90	0xbdffe195	-0.12494198
91	0xbde49dfc	-0.11162946
92	0xbd9a57c3	-0.075362705
93	0xbde1be2c	-0.110226005
94	0xbd6fd907	-0.058556583
95	0xbd9799cf	-0.074023835
96	0x3dd2860d	0.102794744
97	0x3d81ae2d	0.063320495
98	0x3da1e8b3	0.07905712
99	0x3d4e3f18	0.05035314
100	0x3dbdb1b4	0.0926241
101	0x3d54e691	0.051977698
102	0x3d806d8b	0.06270894
103	0x3d760d19	0.060071085
104	0x3dc44e68	0.09585267
105	0x3dc78bb0	0.0974344
106	0x3d7f2d36	0.062298976
107	0x3da9a616	0.082836315
108	0x3dea6e4c	0.11446819
109	0xbd704ebe	-0.058668844
110	0x3c30291f	0.0107519915
111	0xbd346a3c	-0.044046625
112	0xbe01c7b8	-0.12673843
113	0x3bd21295	0.0064109066
114	0xbd13de9b	-0.036100965
115	0xbc9161af	-0.017746774
116	0x3d74729b	0.05967961
117	0x3cab8ddf	0.020941673
118	0xbc22a727	-0.009927548
119	0xbc6865b6	-0.014184406
120	0xbcc90bd0	-0.024541765
121	0xbc8bf89d	-0.017086321
122	0xbd0621ea	-0.032747187
123	0xbc066419	-0.008202576
124	0xbce40726	-0.02783544
125	0xbd40319e	-0.04692232
126	0xbd037054	-0.032089546
127	0xbcd61b8d	-0.026136184
128	0xbc091c8f	-0.008368625
129	0xbc80acef	-0.015707461
130	0xbcd7ea4c	-0.026356839
131	0xbc7a456a	-0.015275339
132	0x3dcf9e57	0.10137623
133	0x3dfb3077	0.12265103
134	0x3dabb84e	0.08384763
135	0x3dbbd045	0.09170584
136	0x3dfe38a3	0.12413146
137	0x3dcdcebb	0.10049196
138	0x3ddf2ad7	0.10896843
139	0x3dce1b11	0.10063756
140	0x3e08d5df	0.13362835
141	0x3dd0fc24	0.10204342
142	0x3df1bbcc	0.118033975
143	0x3e03b879	0.1286334
144	0x3d170db4	0.036878303
145	0x3d5da3fa	0.05411146
146	0x3d5a6106	0.053315185
147	0x3d0189e6	0.03162565
148	0x3cb25118	0.021767184
149	0x3d482053	0.04885895
150	0x3d2e6155	0.04257329
151	0x3d4a64ce	0.04941254
152	0x3d826ee6	0.063688084
153	0x3d38f836	0.045158587
154	0x3d1c9ab4	0.038233474
155	0x3cff170c	0.03113892
156	0xbd63f148	-0.055650026
157	0xbd9b78c6	-0.07591395
158	0xbd4222e1	-0.047396544
159	0xbcd66383	-0.026170498
160	0xbd803a3a	-0.06261106
161	0xbdc9e6da	-0.098584846
162	0xbde1942b	-0.11014589
163	0xbdacb0b9	-0.08432145
164	0xbdccfffe	-0.10009764
165	0xbdcd5557	-0.10026043
166	0xbd9cba68	-0.07652742
167	0xbdb3b6fd	-0.087751366
168	0xbb9ac4c5	-0.004723164
169	0x3d3f703e	0.046737902
170	0xbb551d0f	-0.003251854
171	0x3c1c4fec	0.009540539
172	0x3dbb8f52	0.091581956
173	0x3d5fc55a	0.05463157
174	0x3d0a7c41	0.033809904
175	0x3c72bf0d	0.014816058
176	0xbbb3f946	-0.005492362
177	0x3c3a786d	0.011381251
178	0x3d3bc21b	0.04583941
179	0x3d7321bd	0.059358347
180	0x3d3c1baf	0.04592484
181	0x3d2f9649	0.042867932
182	0x3ceded64	0.02904386
183	0x3c6d6068	0.014488317
184	0x3cae23c7	0.021257294
185	0x3d1d6032	0.038421817
186	0x39a6358b	0.0003170188
187	0x3d2d7293	0.042345595
188	0x3cc75c8f	0.024336128
189	0x3cff4d48	0.03116478
190	0x3ce78f65	0.028266618
191	0x3d0ba699	0.034094427
192	0x3deaccec	0.11464867
193	0x3dd6999b	0.10478517
194	0x3de4a590	0.11164391
195	0x3d8832fc	0.066503495
196	0x3dbd8b01	0.092550285
197	0x3dd101ab	0.10205396
198	0x3df570c6	0.119844005
199	0x3ddda0a0	0.108216524
200	0x3dd7a877	0.10530179
201	0x3db72765	0.08943061
202	0x3db41663	0.087933324
203	0x3de60d90	0.112330556
204	0xbe011401	-0.12605287
205	0xbd66c8f4	-0.056343988
206	0xbdb20ef4	-0.08694258
207	0xbce8370e	-0.028346565
208	0xbdac58af	-0.084153526
209	0xbdbba7da	-0.091628745
210	0xbdba221e	-0.090885386
211	0xbdcae71d	-0.099073626
212	0xbdb7d743	-0.08976605
213	0xbd3b2434	-0.045688823
214	0xbd53273c	-0.05155109
215	0xbd84ed74	-0.06490603
216	0x3daedda4	0.08538368
217	0x3d0793cb	0.03309993
218	0x3c715d0f	0.01473166
219	0x3dca60d1	0.098817475
220	0x3d85e5e0	0.06537986
221	0x3d496a3c	0.04917358
222	0x3ccdfe77	0.025145752
223	0x3d9b186a	0.07573016
224	0x3ce7948e	0.028269079
225	0x3d2bdecb	0.04196052
226	0x3d879f1f	0.06622147
227	0x3d965ee7	0.0734232
228	0xbc9d3e43	-0.019194728
229	0xbc668d51	-0.014071778
230	0xbc429147	-0.011875457
231	0xbc84665b	-0.016162088
232	0x3d049880	0.032371998
233	0xbcbf144d	-0.02332511
234	0xbaa90f37	-0.0012898211
235	0x3c5c9ab6	0.01346462
236	0xbd004760	-0.03131807
237	0xbd310fdb	-0.04322801
238	0xbcab4127	-0.02090509
239	0xbc585ccd	-0.013205719
240	0xbd495dad	-0.0491616
241	0xbd248203	-0.04016305
242	0xbd3eb4a1	-0.04655898
243	0xbcdd592e	-0.027020063
244	0xbd2fd861	-0.042930964
245	0xbc3d7104	-0.01156259
246	0xbd1ef668	-0.03880921
247	0xbd298262	-0.04138411
248	0xbd10c4ee	-0.035344057
249	0xbd8977b5	-0.067122854
250	0xbc31e88e	-0.010858668
251	0xbd5a91b7	-0.05336162
252	0x3d6764a2	0.056492455
253	0x3d74e740	0.05979085
254	0x3d1219b8	0.03566906
255	0x3d980f5f	0.07424807

clf.bias f4 [3]
0	0x3a323a25	0.00067988253
1	0x3d9ce659	0.07661123
2	0xbe255075	-0.16143973
